src/main/resources/trained_networks/plankton_segmenter/model.onnx (onnx, 499162 bytes, 29 tensors)

pred/Conv2D/ReadVariableOp:0 f4 [1, 8, 1, 1]
0	0x3f6da2a5	0.928263
1	0xbf3b6873	-0.7320625
2	0x3f889b7d	1.0672451
3	0x3ea8f7d6	0.33001584
4	0xbf2e8644	-0.68173623
5	0xbf7b69bb	-0.98208207
6	0xbf814d7f	-1.0101775
7	0x3f051105	0.51979095

conv2d_9/BiasAdd_weights_fused_bn f4 [32, 32, 3, 3]
0	0x3d74ee0b	0.059797328
1	0x3ca6d871	0.02036688
2	0xbcbabcc9	-0.022795098
3	0xbd8b3438	-0.06797069
4	0x3cba1cff	0.022718905
5	0x3d83e366	0.06439857
6	0x3d2f2770	0.04276222
7	0xbc438b2f	-0.011935039
8	0xbd25290c	-0.04032235
9	0xbd07ccc0	-0.03315425
10	0x3d027f39	0.03185961
11	0x3d3f2d18	0.046673864
12	0xbcf7c409	-0.030244844
13	0x3d9b17ee	0.075729236
14	0x3c6985dc	0.014253106
15	0xbbded30e	-0.006800062
16	0xbbdb6702	-0.006695629
17	0xbccc8e39	-0.02497016
18	0x3b719423	0.0036861978
19	0xbc136c58	-0.008997999
20	0xbd510824	-0.051033154
21	0x3d7d19a4	0.06179203
22	0x3bf29748	0.007403288
23	0x3bfd36d5	0.0077274838
24	0x3b8d2be6	0.0043082116
25	0x3bbe3d38	0.0058056377
26	0x3be56dcc	0.007001614
27	0xbc1a050c	-0.009400617
28	0x3cf5a3b8	0.029985294
29	0x3d7431ff	0.059617992
30	0xbbcf6207	-0.0063288244
31	0x3d2a88cf	0.041634377
32	0x3caffb67	0.021482183
33	0xbd8397f8	-0.0642547
34	0x3c364859	0.011125647
35	0x3c37ce94	0.011218686
36	0xbd258e06	-0.040418647
37	0xbc523dfe	-0.012832163
38	0x3ccb6763	0.024829572
39	0x3c1ba73a	0.009500319
40	0x3bd36075	0.0064507076
41	0xbd6cfd78	-0.057858914
42	0xbd04c7a6	-0.032416962
43	0xbc9c9b53	-0.019117033
44	0xbd90909c	-0.07058832
45	0x3ccd0a19	0.025029229
46	0xbbaf22ef	-0.0053447406
47	0x3b0b4fca	0.0021257275
48	0x3bb6051a	0.0055548074
49	0xbc6002d1	-0.0136725465
50	0x3cc2fc96	0.023802083
51	0xbd8a5fc5	-0.06756548
52	0xbbc2970d	-0.005938417
53	0xbd1d0109	-0.038331065
54	0xbc00626d	-0.007835967
55	0x3d40e0f0	0.047089517
56	0x3acca111	0.0015611966
57	0xbc560c1a	-0.013064409
58	0xbc89d98b	-0.016827365
59	0xbbbdb161	-0.0057889675
60	0xbd03d11e	-0.03218185
61	0xbc9e1719	-0.019298123
62	0x3cbb1165	0.022835443
63	0xbd8d3990	-0.06895745
64	0xbcd05b7b	-0.025434246
65	0xbd631bd8	-0.055446476
66	0x3b527166	0.0032111048
67	0xbd7e76b5	-0.062124927
68	0xbbb93d85	-0.0056530857
69	0xbcabd056	-0.020973366
70	0x3c83e13c	0.016098611
71	0xbc639da3	-0.013892564
72	0x3d0fdead	0.03512447
73	0x3ca3fd62	0.020018283
74	0xbc93ecb9	-0.018057214
75	0x3b92011c	0.0044556987
76	0xbc141fef	-0.009040817
77	0x3c66dbe8	0.014090516
78	0x3ca6ebf8	0.02037619
79	0x3cb7cf53	0.022437727
80	0xbb0688f2	-0.0020528403
81	0xbd6286d3	-0.05530436
82	0xbcc7f282	-0.024407629
83	0x3bb5ce5e	0.0055482825
84	0xbd030f68	-0.031997114
85	0xbd0be7cf	-0.034156617
86	0xbbfb619c	-0.007671548
87	0xbd52c39f	-0.05145609
88	0x39b6361d	0.00034754063
89	0x3c25a835	0.010110904
90	0x3b6a5100	0.0035753846
91	0x3b66639f	0.0035154594
92	0x3d052b49	0.032511983
93	0xbc5ef22c	-0.013607543
94	0x3d639c8f	0.055569228
95	0xbb75a4e2	-0.003748231
96	0xbc0e0255	-0.008667548
97	0xbbb253a8	-0.0054421015
98	0xba7d2b09	-0.0009657597
99	0x3d22b8ff	0.039727207
100	0x3c8f2950	0.017475754
101	0x3b0fc99c	0.0021940237
102	0xbcbd9f78	-0.02314733
103	0x3d264278	0.040590733
104	0xbd3fa6fc	-0.046790108
105	0xbb89cd82	-0.0042054066
106	0xbc08624c	-0.008324217
107	0xbcc3a383	-0.02388168
108	0xbc889b0e	-0.016675498
109	0xbcfdeabd	-0.030995721
110	0x3cb2a6b8	0.021808013
111	0xbd1d433c	-0.038394198
112	0x3d41074e	0.047126107
113	0xbca83b00	-0.020535946
114	0xbc98f6f9	-0.018672453
115	0x3c6a2a87	0.014292366
116	0x3ca380e4	0.01995892
117	0xbd4b986f	-0.04970592
118	0x3c74d7c6	0.0149440225
119	0x3bbcf967	0.0057670358
120	0x3d0cd91a	0.03438673
121	0xb9a23702	-0.00030940032
122	0x3c0e898f	0.008699789
123	0x3b43ceb8	0.0029877853
124	0x3b235dfa	0.002492784
125	0x3c6b4d37	0.014361671
126	0xbd927460	-0.07151103
127	0xbd11697b	-0.035500985
128	0xbcbc2d66	-0.022970866
129	0x3caece73	0.021338677
130	0xbcbe4890	-0.02322796
131	0xbd8d537a	-0.069006875
132	0x3d199a5d	0.037500728
133	0xbd655828	-0.055992275
134	0xbd6f95f4	-0.058492616
135	0x3c8ccc68	0.017187312
136	0x3d807328	0.06271964
137	0xbc0871b4	-0.00832789
138	0xbccc0a24	-0.02490718
139	0xba555367	-0.0008137733
140	0xb78826d1	-1.6230539e-05
141	0x3d4e9665	0.050436396
142	0xbcbffec7	-0.023436917
143	0x3cc8b75b	0.024501493
144	0x3c8b6b62	0.017018978
145	0x3cad981f	0.021190701
146	0x3d475609	0.048666034
147	0x3cdda3fd	0.027055735
148	0x3d079de6	0.033109568
149	0xbc937b5b	-0.018003156
150	0xbbcea448	-0.006306205
151	0x3c588bb3	0.013216901
152	0xbd30dd2e	-0.043179683
153	0x3b5a99d3	0.0033355847
154	0xbcd3c011	-0.02584842
155	0xbcf734f8	-0.030176625
156	0x3d852bef	0.0650252
157	0x3cb3c79e	0.02194577
158	0xbd6750d0	-0.056473553
159	0x3c9f7c36	0.019468408
160	0x3b87fcb9	0.00415
161	0x3d127fb9	0.035766337
162	0xbd631c00	-0.055446625
163	0xbc89f174	-0.016838767
164	0xbd5167d8	-0.051124424
165	0x3ba7eceb	0.0051246784
166	0xbd232ee0	-0.039839625
167	0x3ca6a58a	0.020342607
168	0x3cd8ab15	0.026448766
169	0xbd8e4fc5	-0.069488086
170	0xbbccb588	-0.006247226
171	0xbce6118a	-0.028084535
172	0xbc78b120	-0.015178949
173	0xbaa68c90	-0.0012706686
174	0xbd621088	-0.055191547
175	0xbc933952	-0.017971668
176	0xbd6b7e69	-0.0574936
177	0x3d73c639	0.05951521
178	0x3bb6d46a	0.005579521
179	0xbc9d5a7f	-0.019208191
180	0xbcb40211	-0.021973642
181	0x3d170139	0.0368664
182	0x3c11d79e	0.008901505
183	0xbb2a13eb	-0.0025951813
184	0xbd01b7a3	-0.03166927
185	0x3cf23869	0.029567914
186	0xbc5e1c52	-0.013556557
187	0xbcf29730	-0.029613107
188	0xbc912e3f	-0.017722247
189	0x3ca56a57	0.020192308
190	0x3d5804ca	0.052738942
191	0xbb1eb3ca	-0.002421605
192	0x3cedd94e	0.029034283
193	0xbc78e118	-0.015190385
194	0xbc91dfe3	-0.017806953
195	0x3cf781db	0.030213287
196	0x3d6eaa04	0.05826761
197	0x3c0efd72	0.008727418
198	0x3d0661f9	0.032808278
199	0x3b358b4c	0.0027701436
200	0xbd03e2cd	-0.032198716
201	0x3c168210	0.009186283
202	0x3d86353b	0.06553122
203	0xbd190b13	-0.037364077
204	0xbc337762	-0.010953756
205	0x3b50829f	0.0031816137
206	0x3d576250	0.052583992
207	0xbd82254e	-0.063547716
208	0xbd1eaa22	-0.03873647
209	0x3d1b184f	0.03786498
210	0xbd159b54	-0.036525086
211	0xbd644f53	-0.055739712
212	0x3c98aa22	0.018635813
213	0xbb72f912	-0.0037074727
214	0x3cb1b9ee	0.021695103
215	0xbd754e63	-0.05988921
216	0x3c99148a	0.018686552
217	0xbb62ee42	-0.0034626876
218	0xbcf21dae	-0.029555168
219	0x3d344e4d	0.044019986
220	0x3c1d34a0	0.009595066
221	0x3c83f959	0.01611011
222	0xbd125a1c	-0.035730466
223	0x3b9e0ca4	0.004823284
224	0x3c9c743a	0.01909839
225	0xbb47032d	-0.0030366883
226	0xbd24fef2	-0.040282197
227	0xbd824f60	-0.06362796
228	0x3d7a532d	0.06111448
229	0xbd59a42f	-0.053135093
230	0xbca6e2e7	-0.020371867
231	0xbbad693f	-0.0052920873
232	0xbcc30dce	-0.023810294
233	0x3d0a3eeb	0.03375141
234	0x3cbd33c7	0.023095978
235	0x3caff014	0.021476783
236	0x3d9562dc	0.072942466
237	0x3cb968ec	0.022633038
238	0x3c3ac8e9	0.01140044
239	0x3ced7ad2	0.02898923
240	0xbd2b24c3	-0.041783106
241	0xbb205a56	-0.0024467907
242	0xbd789077	-0.060684647
243	0x3d0dbd99	0.034604643
244	0x3c135965	0.008993481
245	0xbd0c8b11	-0.03431231
246	0x3d8c466b	0.06849369
247	0xbc164122	-0.009170802
248	0xbd07159e	-0.0329796
249	0x3d52dcaf	0.05147999
250	0xbc9c0b8e	-0.019048478
251	0xbd534852	-0.051582642
252	0x3c9cfb70	0.019162863
253	0xbd8e52c5	-0.06949381
254	0xbd481703	-0.04885007
255	0x3d4d1f23	0.050078522

conv2d_9/BiasAdd_bias_fused_bn f4 [32]
0	0xbd8c694c	-0.06856021
1	0xbdca81e6	-0.098880574
2	0xbe8fbbb7	-0.28072903
3	0x3d1a2efb	0.03764246
4	0x3e1e91fc	0.15485376
5	0x3b708800	0.0036702156
6	0x3ceb575a	0.028728176
7	0xbec7fc6a	-0.39059764
8	0xbeab82df	-0.33498284
9	0x3e32f5be	0.17476556
10	0xbe6d09a8	-0.23148215
11	0xbd860df7	-0.06545632
12	0xbeae1b5a	-0.34005243
13	0x3dae50c5	0.08511499
14	0xbeb444ee	-0.3520884
15	0x3dc19dbb	0.09453913
16	0xbdb48f43	-0.088163875
17	0xbd483d1c	-0.048886403
18	0x3e044aa7	0.12919103
19	0x3dc0ef44	0.09420636
20	0xbdd6d258	-0.10489339
21	0xbe26eacc	-0.16300505
22	0xbe330dc2	-0.17485717
23	0xbb538060	-0.0032272562
24	0x3e81f497	0.2538192
25	0xbe9e2332	-0.30886227
26	0x3d0d9b04	0.034571663
27	0x3d5f2b95	0.054484922
28	0xbd2998d6	-0.04140552
29	0xbed424ea	-0.41434413
30	0xbe231f61	-0.15929939
31	0xbdb534ce	-0.08847962

conv2d_8/BiasAdd_weights_fused_bn f4 [32, 96, 3, 3]
0	0x3ce4cfcf	0.027931122
1	0x3d2dc741	0.04242635
2	0x3d1fa98d	0.038980056
3	0x3c30a955	0.010782559
4	0xbc2e61ed	-0.0106434645
5	0x3d0630f8	0.032761544
6	0xbd1fa0ec	-0.038971826
7	0xbbbd36ae	-0.0057743406
8	0x3cd113ec	0.025522195
9	0x3b8cbe45	0.004295143
10	0x3ccec4a6	0.025240254
11	0x3b828350	0.003982939
12	0x3cfd6cab	0.030935606
13	0x3d340d6a	0.043958105
14	0x3cde8c0c	0.027166389
15	0x3ccb3a9a	0.024808217
16	0x3c9d86f2	0.019229386
17	0x3bb10757	0.0054024863
18	0x3b40fbb2	0.0029446897
19	0xbbe1de32	-0.006892943
20	0x3cbfd34a	0.02341618
21	0xbc489aef	-0.01224397
22	0x3b414779	0.0029492064
23	0x3ca74abc	0.020421378
24	0x3c9650ee	0.018349137
25	0x3ce9bf63	0.028533643
26	0x3cdcb992	0.026943956
27	0xba3e12b4	-0.0007250712
28	0xbce4d41b	-0.027933171
29	0xbd000fd4	-0.031265095
30	0xbd3ed2ca	-0.046587743
31	0xbc6ef519	-0.014584803
32	0x3b27ab09	0.0025584123
33	0xbc315c6e	-0.01082526
34	0xbd486bec	-0.048931047
35	0x3c0b8f5a	0.008518064
36	0xbc436095	-0.011924882
37	0xbd47e3af	-0.04880112
38	0xbcee4f69	-0.0290906
39	0xbcd9663f	-0.026538013
40	0x3d0f674d	0.035010625
41	0x3bcd8a5c	0.0062725972
42	0x3c79c66f	0.015245064
43	0x3c8c23a1	0.017106833
44	0x3ce28060	0.027649105
45	0xbc5337ed	-0.012891752
46	0xbbcfd243	-0.006342204
47	0xbc1e5475	-0.009663691
48	0x3cb50fa8	0.022102192
49	0x3c477e4d	0.012176109
50	0xbcff7bce	-0.031186964
51	0xbd327b50	-0.04357463
52	0x3b42c77d	0.0029720955
53	0xba7a4bf7	-0.0009548063
54	0xbce9231c	-0.028459124
55	0xbd1894f5	-0.03725143
56	0x3c15da8d	0.009146345
57	0x3d0f1688	0.034933597
58	0x3ad280cc	0.0016060113
59	0xbc582cc5	-0.013194268
60	0x3c1d06df	0.009584158
61	0x3d803e9a	0.0626194
62	0xbc582ec4	-0.013194744
63	0xbcffced6	-0.031226557
64	0x3cf6de2b	0.030135235
65	0x3ce0b682	0.027430777
66	0x3beffc0a	0.0073237466
67	0x3d5bfbd5	0.053706963
68	0xbadb816f	-0.0016746948
69	0x3a59dda3	0.00083109195
70	0x3d30c535	0.04315682
71	0x3a37c152	0.0007009703
72	0xbd5eae49	-0.05436543
73	0xbd2a9a4f	-0.041651066
74	0x3c5d4c7e	0.013507007
75	0x3c840cb2	0.016119335
76	0xbd4336b9	-0.04765961
77	0x3d392d7d	0.045209397
78	0xbb2de903	-0.002653659
79	0x3d0f83fc	0.03503798
80	0x3d2c9b42	0.042140253
81	0xbd069334	-0.032855228
82	0xbcb27d20	-0.02178818
83	0x3d3d8ea0	0.046278596
84	0xbd5a76f3	-0.053336095
85	0x3c59f76c	0.013303619
86	0x3d8179d8	0.06322068
87	0x3cb813c8	0.02247037
88	0xbce33ca4	-0.027738877
89	0x3d2f689d	0.042824376
90	0x3b40a110	0.0029392876
91	0xbd354092	-0.044251032
92	0x3cf5557c	0.029947989
93	0xbb9447d9	-0.0045251665
94	0xbc3878e0	-0.011259288
95	0xbcc581fd	-0.024109835
96	0x3c3bb3e8	0.011456467
97	0xbc69b01c	-0.014263179
98	0xbc8b9641	-0.01703942
99	0x3d20f08b	0.0392919
100	0x3c603abf	0.013685881
101	0xbc742323	-0.014900955
102	0xbc7bbbd0	-0.015364602
103	0xbc7e3bb5	-0.015517165
104	0xbc659fea	-0.014015177
105	0x3d01db3d	0.031703223
106	0x3d3d584b	0.04622678
107	0xbcc74087	-0.024322761
108	0xbd153114	-0.036423758
109	0xba83f93c	-0.0010068784
110	0xbd975844	-0.07389882
111	0xbce4b4c3	-0.027918225
112	0xbc764291	-0.015030519
113	0x3c08f231	0.008358524
114	0xb93cdcee	-0.0001801138
115	0x3c0db1fe	0.008648394
116	0x3d3bcb89	0.045848403
117	0xb950b845	-0.00019905072
118	0x3c4cfcac	0.012511414
119	0x3d0d59b2	0.03450937
120	0xbc372e2f	-0.011180445
121	0x3c380f04	0.011234049
122	0x3d079c43	0.033108007
123	0x3c41c22c	0.011826079
124	0x3c81a689	0.01582648
125	0x3a72db62	0.0009264258
126	0xbcac7616	-0.021052402
127	0xbcd75a67	-0.026288224
128	0x3d55e083	0.052216064
129	0x3c4c53da	0.012471164
130	0xbcd4a0c4	-0.025955565
131	0x3ccd2188	0.025040403
132	0x3b347f72	0.0027541784
133	0x3cb898ce	0.0225338
134	0x3d4537a2	0.04814876
135	0xbb3d415a	-0.0028878064
136	0x3c3ebf6d	0.011642319
137	0x3ad8761f	0.0016514695
138	0x3b920287	0.0044558677
139	0x38b5b185	8.663818e-05
140	0xbced79d7	-0.028988762
141	0xbbc3e392	-0.005978056
142	0xbbf06df6	-0.007337327
143	0x3c2e6305	0.010643725
144	0xbc017555	-0.007901509
145	0xbb6ef00f	-0.0036459004
146	0x3c68cd03	0.014209035
147	0xbce4051d	-0.02783447
148	0xbc6e9425	-0.014561688
149	0x3c8896ec	0.016673528
150	0xbca8f151	-0.020622881
151	0x3c298dec	0.010348778
152	0x3c3ce80d	0.011529935
153	0x3c183c98	0.00929179
154	0xbc783fe3	-0.0151519505
155	0xbcfa8ab5	-0.030583719
156	0x3c19283c	0.0093479715
157	0x3cc0b952	0.023525868
158	0x3cb5afc9	0.022178547
159	0x3d5b212f	0.053498443
160	0xbcbd4e14	-0.02310852
161	0x3938d3cc	0.00017626508
162	0xbd16a289	-0.0367761
163	0xbb9f84bf	-0.0048681195
164	0xbb6c7944	-0.0036083022
165	0xbb2ea0c4	-0.0026646117
166	0xbd0ad9bf	-0.033899065
167	0x3d2d9949	0.042382512
168	0xbc532eaa	-0.012889544
169	0x39728f98	0.00023132411
170	0x3c73651a	0.014855647
171	0x3d1422dd	0.03616606
172	0x3d15e973	0.036599588
173	0x3b73270d	0.0037102134
174	0xbd21c11b	-0.0394908
175	0x3d0f3a7e	0.034967892
176	0x3c1a0da1	0.009402663
177	0xbb876330	-0.004131697
178	0xbc8d80ba	-0.017273296
179	0x3cab3ca3	0.020902937
180	0x3c391425	0.011296307
181	0x3c2c2389	0.010506519
182	0x3d2b190c	0.041771933
183	0x3c14d40d	0.00908376
184	0x3b0bda9e	0.0021340023
185	0x3ce15c7d	0.027509922
186	0xbca95064	-0.020668216
187	0x3d122f22	0.03568948
188	0x3da2d845	0.079514064
189	0x3c35dd75	0.011100163
190	0x3cd861c0	0.026413798
191	0x3d0627d3	0.032752823
192	0xbc30997b	-0.01077878
193	0xbbaf556b	-0.005350759
194	0xbd0e05cf	-0.03467351
195	0x3ce327bd	0.02772891
196	0x3d01940a	0.03163532
197	0xbb0e7457	-0.0021736824
198	0x3ba41b23	0.0050081178
199	0xbc7d4e28	-0.015460528
200	0xbd2d350e	-0.042286925
201	0x3d0433ab	0.032275837
202	0xbc92b027	-0.017906262
203	0xbc245e6a	-0.010032276
204	0x3d0b5c37	0.03402349
205	0x3babe94a	0.005246316
206	0x3cf97715	0.03045229
207	0x3cc0ed37	0.023550613
208	0x3bd41946	0.0064727394
209	0xbb7f5878	-0.0038962644
210	0x3cdce589	0.02696492
211	0x3ceedd9f	0.029158412
212	0xbc3d4edd	-0.011554447
213	0x3c295b28	0.010336675
214	0x3d017cfd	0.03161334
215	0x3d0f2c14	0.034954146
216	0xbc2d0b25	-0.010561739
217	0x3ccf15a3	0.025278872
218	0x3be72a9b	0.0070546395
219	0xbcfd9028	-0.030952528
220	0x3c93a97a	0.018025149
221	0x3ccb61a5	0.024826834
222	0xbd4433b2	-0.047900863
223	0x3c11af4c	0.008891892
224	0xbc3986ec	-0.011323672
225	0xbce38f21	-0.02777821
226	0xbc6810c8	-0.014164157
227	0x3d045d7a	0.03231571
228	0xbb82e225	-0.0039942437
229	0x3c235ae6	0.009970402
230	0xbc589e93	-0.013221401
231	0x3c43e63e	0.0119567495
232	0x3c8de8be	0.017322894
233	0xbc063d68	-0.008193351
234	0xbc88ce8a	-0.016700048
235	0x3cece69b	0.028918555
236	0xbbb96b8e	-0.0056585735
237	0x3d46fc4e	0.04858046
238	0xbbb1cca8	-0.0054260083
239	0x3cdf286d	0.027240956
240	0x3b938f14	0.00450314
241	0x3b305b5d	0.0026909926
242	0xbc938057	-0.018005533
243	0xbbafe0d4	-0.005367378
244	0x3d34c501	0.04413319
245	0xbb5e2c3e	-0.0033900882
246	0xbd2b134a	-0.041766442
247	0x3d343dfd	0.04400443
248	0xbc7417be	-0.014898239
249	0xbc9e956f	-0.019358365
250	0x3ca18b2c	0.019719683
251	0x3d6b4c29	0.05744568
252	0xbc43b1c7	-0.011944241
253	0x3c9c819e	0.019104775
254	0x3d5bab24	0.05363001
255	0xbcf0a893	-0.029377257

conv2d_8/BiasAdd_bias_fused_bn f4 [32]
0	0xbf1b385c	-0.6063287
1	0x3eaa01b6	0.3320443
2	0x3dfe45be	0.12415646
3	0xbd91105a	-0.07083197
4	0xbe14aa43	-0.14518075
5	0xbdbebab0	-0.093129516
6	0xbdb2b15e	-0.08725236
7	0xbe240569	-0.16017689
8	0xbeedc74a	-0.46441108
9	0xbdc1af0e	-0.09457217
10	0xbc013dc0	-0.0078882575
11	0x3d1564cc	0.03647308
12	0xbde9bc90	-0.114129186
13	0x3ec72d8f	0.38901946
14	0xbd3dcbba	-0.046336867
15	0x3ea16865	0.3152496
16	0x3e3f670c	0.18691653
17	0xbd156bb3	-0.036479663
18	0xbda3477a	-0.079726174
19	0x3e2d09d6	0.16898283
20	0xbe4f9108	-0.20270169
21	0x3c29b0c0	0.010357082
22	0x3e5dc589	0.21657385
23	0xbed6279f	-0.41827103
24	0xbe5d8896	-0.21634135
25	0xbe5d0b5d	-0.21586366
26	0xbe372f83	-0.17889218
27	0xbec22883	-0.37921533
28	0xbe99e656	-0.30058545
29	0xbd8c489f	-0.06849789
30	0xbca3b0c8	-0.019981757
31	0xbdd45b2f	-0.103689544

conv2d_7/BiasAdd_weights_fused_bn f4 [64, 64, 3, 3]
0	0x3d037336	0.032092296
1	0xbd1d8b27	-0.038462784
2	0xbd0a38c6	-0.03374555
3	0xbc6fea7e	-0.01464331
4	0x3bc2bc39	0.005942848
5	0x3c75837b	0.014984961
6	0xbc41fdb2	-0.011840271
7	0x3d4312fc	0.047625527
8	0x3c0cb538	0.008588128
9	0x3cc05ce3	0.023481792
10	0xbc9792d4	-0.01850263
11	0xbc94dca9	-0.018171625
12	0xbd669413	-0.05629356
13	0x3b7657a1	0.0037588852
14	0xbce63f78	-0.028106436
15	0xbbe011b2	-0.006838047
16	0xbb8af15b	-0.0042401976
17	0xbc42c36e	-0.011887414
18	0x3c639bad	0.0138920965
19	0x3b5dee61	0.0033864009
20	0xbc9b1bbd	-0.018934125
21	0x3c8177ac	0.015804134
22	0x3ce24c0d	0.027624154
23	0x3d15106d	0.036392618
24	0xbd079ff3	-0.033111524
25	0x3c21a8ab	0.009866874
26	0x3d22fcfa	0.03979204
27	0x3c9eee10	0.019400626
28	0x3d0d8626	0.034551762
29	0x3a767684	0.00094018155
30	0xbc27037c	-0.010193702
31	0x3cf8982e	0.030346002
32	0xbcf284ec	-0.029604398
33	0xbd261293	-0.040545058
34	0xbd4d6d75	-0.050153214
35	0xbd147d79	-0.036252473
36	0xbcc63751	-0.024196299
37	0x3d056dab	0.03257529
38	0xbba26b74	-0.004956657
39	0x3c044f5b	0.00807556
40	0x3d12c220	0.035829663
41	0xbcf03310	-0.029321223
42	0x3d1febb9	0.039043162
43	0x3c5690e6	0.01309607
44	0xbd02e5b2	-0.031957336
45	0xbcbe8730	-0.023257822
46	0x3c5f8d03	0.01364446
47	0xbd2026ab	-0.039099377
48	0x3cdc7b79	0.026914345
49	0x39bd97a3	0.00036161867
50	0xbc8755e0	-0.01652044
51	0xbb7cbc5b	-0.0038564417
52	0xbc4a58e9	-0.012350299
53	0x3cfecfee	0.031105008
54	0xbc1e7bfd	-0.009673116
55	0xbd1551d1	-0.03645498
56	0xbd1512fd	-0.03639506
57	0xbbf7cc35	-0.007562185
58	0xbcad37fc	-0.02114486
59	0x3d142288	0.036165744
60	0xbc4bbc60	-0.012435049
61	0xba03d2db	-0.00050286733
62	0x3a3da2e6	0.00072340516
63	0xbd08c534	-0.033391193
64	0xbd4b05a0	-0.04956591
65	0xbd8223d2	-0.063544884
66	0x3d3189ac	0.043344185
67	0x3d0ac560	0.033879638
68	0xba5badef	-0.0008380105
69	0xbb9ce0dd	-0.004787548
70	0x3cfbbc04	0.030729301
71	0x3cfe115a	0.031014133
72	0xbc7e3390	-0.015515223
73	0xbce75c3b	-0.028242221
74	0x3d053589	0.03252176
75	0xbd195f57	-0.03744444
76	0x3cbb6bed	0.022878611
77	0x3d7b651c	0.061375722
78	0xbd5ba490	-0.053623736
79	0xbcb16eee	-0.02165934
80	0x3d375907	0.044762637
81	0xbd919897	-0.07109182
82	0xbc19c9cc	-0.009386491
83	0xbbf50899	-0.0074778316
84	0x3cc9099e	0.024540719
85	0x3d075cf4	0.03304763
86	0xbcabfa47	-0.020993365
87	0xbcd896fe	-0.026439186
88	0x3b27a859	0.002558252
89	0xbcaea657	-0.021319551
90	0xbd4edbaa	-0.050502457
91	0x3d79c48f	0.06097847
92	0x3d38e1be	0.04513716
93	0xbc4a18d5	-0.012335022
94	0xbcc52329	-0.024064617
95	0x3d4afbf0	0.049556673
96	0x3d273047	0.040817525
97	0xbd16b2f0	-0.03679174
98	0xbc9b3760	-0.018947303
99	0xbcea6fb4	-0.028617717
100	0xbd355adf	-0.044276115
101	0xbd668721	-0.056281213
102	0xbcaecd6a	-0.021338183
103	0xbcf58886	-0.029972326
104	0xbc11dded	-0.008903009
105	0xbc46704f	-0.012111737
106	0x3cbed483	0.023294693
107	0xbd5387ba	-0.05164311
108	0xbc60f03c	-0.013729151
109	0xbacc28ba	-0.0015576102
110	0xbcfe527e	-0.031045195
111	0xba4a167e	-0.000770904
112	0x3d0ecf4b	0.03486566
113	0xbd8e9ee2	-0.06963898
114	0xbc0da0d0	-0.008644298
115	0x39c7d956	0.00038118166
116	0x3cffbc2b	0.031217655
117	0x3bb91c4b	0.0056491247
118	0x3d63cf2f	0.055617508
119	0x3c0f8ad6	0.008761128
120	0xbd611867	-0.054954913
121	0x3d2d70cf	0.04234391
122	0x3d2bf348	0.041980058
123	0xbbb2ade5	-0.0054528587
124	0xbc8a1ce9	-0.016859489
125	0xbaa7b1d1	-0.0012794082
126	0xb9c17691	-0.00036900167
127	0x3b5d7e22	0.0033797105
128	0xbd3aedda	-0.04563699
129	0x3d3c980e	0.04604345
130	0xbd32e985	-0.043679733
131	0xbd4a3cae	-0.049374275
132	0xbc4f4a4d	-0.012651992
133	0xbca656d6	-0.020305078
134	0xbd240bc2	-0.040050276
135	0xbd08a187	-0.03335717
136	0x3c194a0f	0.009356036
137	0xbd0656dd	-0.032797683
138	0x3b5bf280	0.003356129
139	0xbc83fda1	-0.01611215
140	0xbc1185b2	-0.008881973
141	0x3d33fbb2	0.043941207
142	0x3d008dbf	0.03138518
143	0xbc34abd1	-0.011027292
144	0xbd024075	-0.031799752
145	0xba5a71f5	-0.0008333021
146	0xb912ea88	-0.00014011015
147	0x3d4f95fd	0.05068015
148	0x3c997a0c	0.018734954
149	0xbced32cf	-0.028954891
150	0x3c81e882	0.015857939
151	0xbd805999	-0.062670894
152	0xbc87a333	-0.016557312
153	0xbd5a41c8	-0.05328539
154	0xbd04589b	-0.032311063
155	0x3b1b3ee3	0.0023688606
156	0x3c7b3b14	0.01533391
157	0x3c870717	0.016482873
158	0x3c520881	0.01281941
159	0xbd4d5e89	-0.050138984
160	0xbcf30da3	-0.029669588
161	0xbc895d17	-0.016768022
162	0x3c10aee2	0.008830758
163	0x3c84f466	0.01622982
164	0xba4431c6	-0.00074842235
165	0xbc919cb0	-0.01777491
166	0x3c504746	0.012712305
167	0x3d711df3	0.058866452
168	0xba5e3298	-0.0008476167
169	0x3b266adf	0.002539329
170	0xbcad22fa	-0.021134842
171	0xbb503081	-0.0031767192
172	0xbbde5bc0	-0.00678584
173	0x3ce64316	0.028108161
174	0x3cc78342	0.02435458
175	0x3c923d6e	0.017851558
176	0x3c826a73	0.0159199
177	0x3ca78fa1	0.02045423
178	0x3d2856b8	0.041098326
179	0xbcde6c51	-0.027151259
180	0x3cd4623f	0.025925754
181	0xbca59334	-0.020211793
182	0xbc6342af	-0.013870879
183	0x3cfe9fa4	0.031081982
184	0x3d1e3fa1	0.0386349
185	0xbcb3d6ef	-0.021953074
186	0x3c80683b	0.015674701
187	0xbaa62083	-0.0012674484
188	0x3d08fd56	0.033444725
189	0xbc8d7b2d	-0.017270649
190	0x3d345494	0.044025972
191	0x3ccc80e8	0.024963811
192	0x3d14c3ea	0.03631965
193	0xbc75a185	-0.014992123
194	0xbd001ed7	-0.03127941
195	0x3be07b1b	0.006850613
196	0xba468a2a	-0.00075736886
197	0x3af7c70d	0.0018903926
198	0x3d539813	0.0516587
199	0x3da53b0e	0.080679044
200	0x3d8fda0f	0.07024013
201	0x3cc29f8d	0.02375772
202	0xbd1af61a	-0.037832357
203	0x3cb8ed98	0.022574231
204	0x3d892522	0.06696536
205	0x3d010ced	0.031506468
206	0x3d0f626c	0.03500597
207	0x3d7202e4	0.059084788
208	0x3d10a8ca	0.03531722
209	0x3d34daf4	0.044154122
210	0x3be7f189	0.007078354
211	0x3aa2985e	0.0012405028
212	0xbaf10b67	-0.0018390239
213	0x3d810071	0.06298912
214	0xbc695e5c	-0.014243688
215	0xbd241ce9	-0.040066633
216	0x3bb998fc	0.005663989
217	0x3c822efe	0.015891548
218	0x3b5b3d30	0.0033453219
219	0xbd2f392d	-0.042779136
220	0xbd0ae88e	-0.033913188
221	0x3d0de030	0.03463763
222	0x3d85c1b6	0.06531088
223	0xbd4d37bf	-0.05010199
224	0x3d2b928b	0.0418878
225	0xbda90fab	-0.082549416
226	0xbc9f7ae7	-0.019467784
227	0xbd5f2648	-0.054479867
228	0x3bea0881	0.007142127
229	0xbce36001	-0.02775574
230	0xbb893d85	-0.004188242
231	0xbda9ab48	-0.082846224
232	0x3b33497d	0.0027357035
233	0xbc94eee9	-0.018180327
234	0x3bfea45e	0.007771059
235	0xbc7c2f1d	-0.015392092
236	0x3b3122b0	0.0027028732
237	0x3c922047	0.017837657
238	0x3b61f8c7	0.0034480558
239	0xbd80b2d1	-0.062841065
240	0x3d889638	0.06669277
241	0x3d82b92d	0.06382976
242	0xbd692488	-0.056919605
243	0x3d8a2440	0.067451954
244	0x3ca8bab3	0.020596838
245	0x3994db4c	0.0002839215
246	0xbb88bc06	-0.0041728048
247	0xbc33e0bf	-0.010978877
248	0x3d8d4a61	0.06898952
249	0x3d434662	0.047674544
250	0x3cd9e832	0.026599977
251	0x3d222d3e	0.039593928
252	0xbbec9de8	-0.0072209723
253	0x3d79624f	0.06088477
254	0x3caed4c1	0.021341683
255	0x3caad989	0.020855682

conv2d_7/BiasAdd_bias_fused_bn f4 [64]
0	0xbe0b60b1	-0.13611104
1	0xbe4a533d	-0.19758315
2	0xbe924347	-0.28566954
3	0xbd8f64a8	-0.070016205
4	0xbdec3eda	-0.115354255
5	0x3d00a17c	0.031404004
6	0xbe608495	-0.21925576
7	0x3e257285	0.16156967
8	0xbe289f5b	-0.1646704
9	0xbe6ed9b6	-0.23325238
10	0xbc09a4c0	-0.008401096
11	0x3dbb2e9f	0.09139752
12	0xbe9a4136	-0.30127877
13	0xbe8d9c7c	-0.2765845
14	0xbe3b267c	-0.182764
15	0xbcd80d17	-0.02637343
16	0xbe684b58	-0.22684991
17	0xbd6d8593	-0.057988714
18	0xbe5427a0	-0.2071824
19	0xbd612dd0	-0.05497533
20	0xbea8dcd1	-0.3298097
21	0xbda5450b	-0.080698095
22	0xbe93e969	-0.28889015
23	0xbe6a3113	-0.22870283
24	0xbee4608c	-0.4460491
25	0xbead7160	-0.3387556
26	0xbed8c999	-0.42341307
27	0xbe81ec6e	-0.25375694
28	0x3da236dc	0.0792062
29	0xbd7d849a	-0.061894037
30	0xbd81bb34	-0.06334534
31	0xbe1c9f84	-0.15295225
32	0xbd964f66	-0.07339363
33	0xbd790900	-0.0607996
34	0x3e13e9c5	0.14444645
35	0xbddbcbec	-0.107322544
36	0xbed27cff	-0.4111099
37	0xbea5cd4c	-0.32383192
38	0x3d9b7158	0.07589978
39	0xbdbefd3d	-0.09325645
40	0xbe2799e0	-0.16367292
41	0xbde9975a	-0.11405821
42	0x3e0a396f	0.13498472
43	0x3c1085ba	0.008820945
44	0x3d082b95	0.033244688
45	0xbc8840f0	-0.016632527
46	0xbe3a9864	-0.18222195
47	0x3c6b4602	0.014359953
48	0x3ddad24f	0.106846444
49	0xbe3dde06	-0.18541726
50	0x3d42eebe	0.047590964
51	0xbd7b5bae	-0.06136673
52	0xbe376283	-0.17908673
53	0xbdd57770	-0.104231715
54	0xbe50c3d7	-0.20387207
55	0x3d277f38	0.04089281
56	0x3dcd5711	0.10026372
57	0xbd60ae8d	-0.054853965
58	0xbe42beb6	-0.19018063
59	0x3dd288e4	0.10280016
60	0xbeb540a8	-0.3540089
61	0x3d1c8ba4	0.03821911
62	0x3d51e96e	0.051248007
63	0xbd3c31b4	-0.045945838

conv2d_6/BiasAdd_weights_fused_bn f4 [64, 32, 3, 3]
0	0x3d08296e	0.033242635
1	0xbd51d9f0	-0.051233232
2	0x3dafdc0f	0.08586895
3	0x3c4ed3f1	0.012623773
4	0x3d7f0fd6	0.06227096
5	0xbd5cd007	-0.053909328
6	0xbc8f3876	-0.017482977
7	0x3d9b4ee3	0.07583406
8	0x3d85ea2c	0.06538805
9	0x3cf8897b	0.030338993
10	0xbc8ad30a	-0.016946334
11	0xbc21c94e	-0.009874655
12	0x3d361bb4	0.044460014
13	0xbc9d6160	-0.019211471
14	0x3cb4a3dc	0.02205079
15	0x3dcc98ee	0.099901065
16	0x3d68c6a6	0.05683007
17	0x3d638ee8	0.055556208
18	0x3cdde603	0.027087217
19	0xbd8fdec5	-0.07024912
20	0x3d4a95b9	0.049459193
21	0xbcf08c4e	-0.029363777
22	0x3cced50e	0.025248077
23	0x3d04d6c3	0.032431375
24	0xbd3fe1b6	-0.046846114
25	0x3d767365	0.060168643
26	0x3ce3f52c	0.027826868
27	0x3d202aa4	0.039103165
28	0xbcb4a775	-0.022052506
29	0xbc4cb2f5	-0.012493839
30	0xbd2efb13	-0.04271991
31	0xbbc5904b	-0.006029164
32	0x3d4dd4be	0.050251715
33	0x3d41c911	0.047310892
34	0xbd203eb5	-0.039122302
35	0x3d827a2f	0.06370961
36	0x3d3ab577	0.045583215
37	0x3d24df51	0.040252034
38	0xbce42756	-0.027850788
39	0x3cfd0bdc	0.030889444
40	0xbcb7b78b	-0.022426387
41	0x3d8b2def	0.067958705
42	0x3db51d73	0.088435076
43	0x3decf1a6	0.11569528
44	0x3d4b22be	0.04959368
45	0x3d250fc7	0.04029825
46	0x3b39c9f4	0.0028349133
47	0x3d72c664	0.05927123
48	0xbc6b5148	-0.014362641
49	0xb9dcf7a4	-0.00042146177
50	0xbccb3035	-0.02480326
51	0xbd235b42	-0.039881952
52	0x3b79d622	0.0038122018
53	0x3d1425a6	0.036168717
54	0x3d3f7364	0.046740904
55	0xbbef8a0e	-0.0073101586
56	0xbda2bf3f	-0.079466335
57	0x3c1011e1	0.008793325
58	0xbd445fbc	-0.047942862
59	0x3d98f83d	0.07469223
60	0xbc8ab52d	-0.016932094
61	0xbbbe8f50	-0.005815424
62	0x3d984d97	0.07436674
63	0x3b7e22fb	0.0038778174
64	0x3ce277df	0.02764505
65	0x3b01aba5	0.0019786146
66	0xbc5ac8f1	-0.013353572
67	0xbc4946fa	-0.012284989
68	0xbd0fcb57	-0.03510603
69	0xbc0e1cb9	-0.00867384
70	0xbc04fa5b	-0.00811633
71	0x3d63498a	0.055490054
72	0x3c6031ec	0.013683777
73	0x3d0bb34b	0.034106534
74	0xbb11b4fd	-0.0022233122
75	0xbb64f184	-0.0034933994
76	0x3db00ffe	0.085968
77	0x3d7a0bd2	0.06104643
78	0xbc8b7692	-0.017024312
79	0xbd517776	-0.051139317
80	0x3d1d1567	0.03835049
81	0x3d265669	0.04060975
82	0x3d9b8ed5	0.075956024
83	0x3ddec83a	0.10878034
84	0x3d4c292f	0.049843963
85	0x3d356780	0.04428816
86	0x3cea1b0d	0.028577352
87	0x3dc07bed	0.09398637
88	0x3b83b597	0.00401945
89	0x3cf45513	0.029825723
90	0xbc067313	-0.008206147
91	0x3d97c725	0.07411031
92	0x3b05a862	0.0020394553
93	0xbd89c180	-0.0672636
94	0xbce8d129	-0.028420048
95	0x3d2305e3	0.039800536
96	0xbd49d541	-0.04927564
97	0x3db86489	0.090035506
98	0x3cdaae18	0.026694342
99	0xbc8f3c3b	-0.017484775
100	0xba0b63b6	-0.0005317287
101	0x3b95ceff	0.004571795
102	0xbceadab9	-0.028668748
103	0x3b11e9ee	0.0022264677
104	0x3d3434da	0.043995716
105	0x3dbce8fa	0.09224124
106	0x3cac9de9	0.021071391
107	0x3c5f2db7	0.013621739
108	0x3c9f7811	0.019466432
109	0x3d8ad55c	0.06778976
110	0x3c863aac	0.016385399
111	0xbd437dd6	-0.04772743
112	0x3da7c3d7	0.0819165
113	0x3daba51e	0.08381103
114	0x3cfa8a7d	0.030583614
115	0xb9bf7464	-0.00036517077
116	0x3daf2c79	0.08553404
117	0x3bf768c5	0.0075503313
118	0x3d590f42	0.052993067
119	0x3d19cfb3	0.037551593
120	0x3d37309e	0.0447241
121	0xbc8ac607	-0.01694013
122	0x3c64cfbc	0.013965543
123	0xbd9c40f3	-0.076295756
124	0x3c70c986	0.014696484
125	0xbd673398	-0.056445688
126	0xbd49aad3	-0.049235176
127	0xbd1d44c9	-0.038395677
128	0x3db8d353	0.09024682
129	0x3c8584cf	0.01629868
130	0x3d95dad8	0.07317132
131	0x3d335c17	0.043788996
132	0xbc3274d2	-0.01089211
133	0xbd39557b	-0.045247536
134	0x3d1e5ee9	0.038664732
135	0xbc90db51	-0.017682703
136	0x3ce54c62	0.027990524
137	0x3d0df127	0.03465381
138	0xbbfc7b45	-0.0077051246
139	0xbc194192	-0.009354012
140	0x3c8d5d6c	0.017256461
141	0x3c1c913e	0.009556113
142	0xbc49c75b	-0.012315596
143	0xbd824b28	-0.06361991
144	0x3d06e56c	0.032933637
145	0x3c82a62c	0.015948378
146	0xbcb56a36	-0.022145372
147	0xbd7a6ea6	-0.06114068
148	0xbd8c8acc	-0.06862411
149	0xbcbf3cb1	-0.02334437
150	0x3cb88295	0.022523204
151	0xbd446224	-0.047945157
152	0xbd96e67f	-0.073681824
153	0x3db581ad	0.08862624
154	0xbcbd9cb6	-0.023146015
155	0x3d006c07	0.031353023
156	0xbd230de6	-0.039808176
157	0x3ca935ae	0.02065548
158	0x3d0ba061	0.034088496
159	0x3cb854ef	0.022501437
160	0x3d8e6480	0.069527626
161	0x3dba7906	0.09105115
162	0xbcbd7bc2	-0.023130301
163	0x3ced3c8a	0.028959531
164	0xbaf634c8	-0.0018784041
165	0xbc063df3	-0.008193481
166	0xbb9c1f28	-0.0047644563
167	0x3da3df85	0.08001617
168	0xbdb04d19	-0.08608455
169	0x3d2fe694	0.042944506
170	0x3da50cd4	0.080590874
171	0x3d029f87	0.03189042
172	0xbd5660de	-0.052338473
173	0x3d2be1d6	0.04196342
174	0xbcb72743	-0.022357589
175	0xba9f361a	-0.0012146861
176	0x3b222ca4	0.0024745846
177	0x3d94afe5	0.07260112
178	0x3d3e3ca4	0.04644455
179	0x3dedb466	0.11606674
180	0xbbc3efb9	-0.005979505
181	0xbc2bfc74	-0.010497201
182	0xbd0f2ad3	-0.03495295
183	0xbcba17f9	-0.02271651
184	0x3d0e2ae9	0.03470889
185	0xba8b1965	-0.0010612427
186	0x3c1b55fa	0.009480948
187	0xbd068fb5	-0.032851893
188	0x3d9b5494	0.07584491
189	0x3c96a2e4	0.01838822
190	0xbd16c018	-0.03680429
191	0x3cc68809	0.024234788
192	0xbce31659	-0.027720617
193	0x3ce75607	0.028239263
194	0x3c8e4b13	0.017369783
195	0x3dced266	0.10098724
196	0x3d4ec5a2	0.050481446
197	0x3caf1ab9	0.021375047
198	0xbc532ece	-0.012889577
199	0xbd1b52a9	-0.037920628
200	0xbbe15c05	-0.0068774247
201	0x3d7242ff	0.059145924
202	0xbd10f203	-0.03538705
203	0x3cb124fc	0.02162408
204	0xbd105aee	-0.035242967
205	0xb9f8cc7c	-0.000474546
206	0xbceb31ac	-0.028710209
207	0x3da49e26	0.08037977
208	0xbbe62288	-0.0070231594
209	0x3dac344f	0.084084146
210	0x3d17813b	0.03698848
211	0xbd17e90e	-0.037087493
212	0x3c525138	0.012836747
213	0x3d582f67	0.05277958
214	0xb967df2e	-0.00022113018
215	0xbca36db9	-0.01994978
216	0x3cb4cb43	0.022069579
217	0x3d86073e	0.0654435
218	0xbc4003fe	-0.011719702
219	0xbc31c317	-0.010849736
220	0x3d60e38a	0.0549045
221	0x3d9ab35f	0.075537436
222	0x3d0e5c58	0.034756035
223	0x3d8b9341	0.06815196
224	0x3c07bf41	0.008285345
225	0xbcf22625	-0.029559204
226	0xbd5122bd	-0.05105852
227	0xbcd7979d	-0.026317412
228	0x3c53075e	0.012880174
229	0xbd09e428	-0.033664852
230	0xbca4e690	-0.020129472
231	0xbd821dbc	-0.06353328
232	0x3c572663	0.013131711
233	0xbc157a47	-0.0091233915
234	0x3dd2de47	0.10296302
235	0x3c6b4e2d	0.0143619
236	0xbad1031c	-0.0015946361
237	0x3d80807d	0.06274507
238	0x3d1e4273	0.03863759
239	0x3d009b42	0.031398065
240	0x3d5e1022	0.054214604
241	0x3c972d03	0.01845408
242	0x3c826485	0.015917072
243	0x3d1d1a75	0.03835531
244	0x3c901765	0.01758928
245	0xbc0da6d0	-0.008645728
246	0xbd06762a	-0.032827534
247	0xbc15cf01	-0.009143592
248	0xbd3d2422	-0.046177037
249	0x3cbc465f	0.022982774
250	0x3d804f70	0.062651515
251	0xbc89a48b	-0.016802093
252	0xbd7a3d09	-0.061093364
253	0xbcc191cf	-0.023629097
254	0x3d8b7aff	0.06810569
255	0x3d2558a0	0.040367723

conv2d_6/BiasAdd_bias_fused_bn f4 [64]
0	0xbff1640a	-1.8858654
1	0x3faeaaab	1.3645834
2	0x3f194d01	0.59883124
3	0x3f562546	0.83650625
4	0x3dbf1014	0.093292385
5	0xbd07c791	-0.033149306
6	0xbf4b60b6	-0.79444444
7	0x3e9be5ed	0.30448857
8	0x3faa5dce	1.3309877
9	0x3f9051c7	1.1274956
10	0x3fad91c3	1.3560108
11	0xbf142277	-0.5786509
12	0xbf156f3a	-0.58372843
13	0x3eb20a7b	0.3477362
14	0xbfb6ccda	-1.4281266
15	0x3f92331a	1.1421845
16	0xbfe1822d	-1.7617851
17	0x3e1ade56	0.15123877
18	0x3f0b15ba	0.5433003
19	0xbf1486c8	-0.5801816
20	0x3f473de8	0.77828836
21	0xbdf23df2	-0.118282214
22	0x3ef26f47	0.47350523
23	0x3fe58502	1.7931216
24	0x3fb32caa	1.3998005
25	0x3f3bcba0	0.7335758
26	0x3f2eaef5	0.68235713
27	0x3e67d092	0.22638157
28	0x3f87492a	1.0569203
29	0xbe3a7ea6	-0.18212375
30	0x3fcc9e1f	1.5985755
31	0x3f55f93f	0.83583444
32	0xbf6661d1	-0.89993006
33	0xbeeab57e	-0.45841593
34	0x3ec2d163	0.38050374
35	0x3ecc5a63	0.3991271
36	0x3f14bf40	0.58104324
37	0x3f2b8673	0.6700203
38	0x3f8af77b	1.0856775
39	0xbdea5d04	-0.114435226
40	0x3f56536b	0.83721036
41	0xbfc27c69	-1.5194217
42	0x3f143c08	0.579041
43	0xbdc85631	-0.09782065
44	0xbf01f482	-0.50763714
45	0xbf25f0d7	-0.6482062
46	0x3e16051e	0.1465039
47	0x3da16030	0.078796744
48	0x3eeccf77	0.46252033
49	0x3f082452	0.5318042
50	0x3e8d692d	0.27619305
51	0x3d47010d	0.048584986
52	0x3f0f526e	0.5598515
53	0x3f9c8075	1.2226702
54	0xbf39139c	-0.72295547
55	0xbd7efbd8	-0.062251896
56	0xbef44f73	-0.47716865
57	0x3fa6ebe2	1.3040736
58	0xbf3a0819	-0.72668606
59	0xbf3641d4	-0.71194196
60	0x3f58c16d	0.84670144
61	0x3f985543	1.190102
62	0x3eae8720	0.34087467
63	0xbf659cf6	-0.8969263

conv2d_5/BiasAdd_weights_fused_bn f4 [32, 32, 3, 3]
0	0x39995d29	0.00029251844
1	0x3d579908	0.052636176
2	0x3d48e4fc	0.0490465
3	0x3cd352b9	0.025796281
4	0x3d73f8cb	0.05956344
5	0x3d8e46d1	0.06947101
6	0xbd769430	-0.060199916
7	0x3ccd3d0b	0.025053522
8	0xbd641793	-0.055686545
9	0xbc530333	-0.012879181
10	0x3ce73968	0.028225616
11	0x3cc789c0	0.024357677
12	0x3dae1cf2	0.08501615
13	0x3cced6fc	0.025248997
14	0x3d05da5f	0.032678958
15	0x3d063616	0.032766424
16	0xba83bf41	-0.0010051505
17	0xbc1d39ac	-0.00959627
18	0x3d5a4063	0.05328406
19	0x3d32d199	0.04365692
20	0x3b925c76	0.0044665886
21	0xbd2e338e	-0.042529635
22	0x3cfc7ee2	0.030822221
23	0x3d049347	0.032367017
24	0xbd8dfc71	-0.06932915
25	0xbcc8a624	-0.024493285
26	0xbd1ec215	-0.03875931
27	0xbd8dd5f7	-0.06925576
28	0xbd8962eb	-0.0670832
29	0xbc61d682	-0.013784053
30	0xbb07c1d3	-0.0020714893
31	0xbdc2c7ec	-0.09510788
32	0xbd1ff374	-0.039050534
33	0xbcec3f64	-0.02883882
34	0xbd6bf4cc	-0.057606503
35	0x3cc7a2cb	0.024369618
36	0x3d7c35b5	0.061574657
37	0xbb387ff6	-0.0028152443
38	0xbdb9873b	-0.09058996
39	0xbcc8d268	-0.024514392
40	0x3c8b354a	0.016993184
41	0x3c80184a	0.015636582
42	0x3d4b714b	0.04966859
43	0xbc9895f8	-0.018626198
44	0x3d1c74f7	0.038197484
45	0x3d87ffea	0.066406086
46	0xbbe40c83	-0.0069594993
47	0x3c14f4f1	0.009091602
48	0x3c84846c	0.016176425
49	0xbdc10f50	-0.09426749
50	0xbcb23cc3	-0.02175749
51	0xbd8ac3a7	-0.06775599
52	0xbc9d469c	-0.019198708
53	0xbcbd38ed	-0.023098433
54	0xbcdb5950	-0.026775986
55	0xbd042848	-0.032264978
56	0x3d45168d	0.04811721
57	0x3c78aa8b	0.015177379
58	0x3d196dcc	0.037458226
59	0x3d5f11cd	0.054460336
60	0xbc966dde	-0.018362936
61	0xbd1308fa	-0.035897233
62	0x3c3f3c8c	0.01167215
63	0x3c79dc0f	0.01525022
64	0x3cb931ef	0.022606818
65	0x3c3db555	0.011578877
66	0xbd2ffddc	-0.04296671
67	0xbce7a69c	-0.028277688
68	0xbca9266c	-0.020648204
69	0x3c9a5aef	0.018842189
70	0xbd2f5a15	-0.04281052
71	0xbc373731	-0.011182592
72	0x3d4695f6	0.048482858
73	0xbbb24a39	-0.005440977
74	0xbcd73592	-0.026270662
75	0x3cf0ca07	0.02939321
76	0x3cc1ac9f	0.023641882
77	0x3da98a90	0.08278382
78	0x3cb76f06	0.022391807
79	0x3b2dd515	0.0026524712
80	0x3d8c4419	0.06848926
81	0x3c8ba9d2	0.01704875
82	0x3ca47233	0.020073986
83	0x3c8954e3	0.01676411
84	0x3ad9fac7	0.0016630524
85	0x3cc7c4a4	0.024385758
86	0x3cc8444c	0.024446629
87	0x3ce8800b	0.028381368
88	0xbd672cf6	-0.056439362
89	0xbd3218ba	-0.043480612
90	0xbd80506d	-0.0626534
91	0xbd88553a	-0.06656881
92	0x3d602838	0.054725856
93	0xbc7b65d4	-0.015344102
94	0xbc97386b	-0.01845952
95	0xbcf9c83d	-0.030490989
96	0xbd63b8b4	-0.05559607
97	0xbcba2f83	-0.022727733
98	0xbc704e14	-0.014667053
99	0x3d125041	0.035721067
100	0x3d047ade	0.032343738
101	0x3d2fb58f	0.042897757
102	0xbc8dd6a9	-0.017314272
103	0x38512fe1	4.9874074e-05
104	0x3c7dd530	0.015492722
105	0xbcf83de7	-0.030302955
106	0xbd474bbd	-0.048656214
107	0xbd98bd2b	-0.07457956
108	0x3d4976c1	0.04918552
109	0xbb95ce32	-0.0045716995
110	0x3bf4d101	0.0074712043
111	0xbd8c240a	-0.068428114
112	0xbd834f36	-0.06411593
113	0xbd634d9d	-0.05549394
114	0x3d347fec	0.04406731
115	0xbd0913ab	-0.033466022
116	0xbd0bfdfc	-0.034177765
117	0xbd444b16	-0.04792317
118	0xbd13aa2b	-0.036050957
119	0x3b8ef1d1	0.004362323
120	0xbd38489f	-0.044991132
121	0x3cd6aa33	0.026204204
122	0xbb493953	-0.0030704334
123	0xbd82e519	-0.06391353
124	0x3cc71829	0.024303513
125	0x3bf24c2c	0.0073943343
126	0x3d10a144	0.035310045
127	0xbcbe6796	-0.023242753
128	0xbcf079ba	-0.029354919
129	0xb97ca094	-0.00024092413
130	0xbd0bac58	-0.034099907
131	0xbda42d05	-0.08016399
132	0xbc7159b0	-0.014730856
133	0x3b16beff	0.0023002026
134	0xbd11ac0c	-0.035564467
135	0xbda57c91	-0.080804
136	0xbbf4793c	-0.0074607413
137	0x3ccbe961	0.024891557
138	0x3d3f4cb2	0.046704
139	0x3d6ad2ef	0.05733007
140	0xbd4b7da5	-0.04968037
141	0xbd6f3942	-0.058404215
142	0x3ce67a22	0.02813441
143	0x3c63a5f1	0.013894544
144	0x3aefa274	0.0018282668
145	0xbc120f5e	-0.008914797
146	0xbca31ee0	-0.019912183
147	0xbd4b80bb	-0.049683314
148	0x3c82aee5	0.015952537
149	0xbd3b7fbf	-0.045776125
150	0xbc4c17fb	-0.012456889
151	0xbca68b80	-0.02033019
152	0x3d5a7f66	0.053344153
153	0xbd276d58	-0.040875763
154	0xbc168928	-0.009187974
155	0xbd46a87a	-0.048500516
156	0x3c434da4	0.011920366
157	0xbd0fe5bb	-0.035131197
158	0x3c03957c	0.008031245
159	0x3d04b023	0.03239454
160	0xbbe7d84f	-0.0070753465
161	0x3b933948	0.0044929124
162	0xbcdb87e1	-0.02679819
163	0x3ccf96b2	0.025340412
164	0x3ca5adbf	0.02022445
165	0xbc156495	-0.009118219
166	0x3cf4948e	0.029855993
167	0x3c98f941	0.018673541
168	0x3ce32a2f	0.027730076
169	0x3cc889fc	0.024479859
170	0xbc9595f9	-0.01825999
171	0x3b401905	0.0029311788
172	0x3d97d633	0.07413902
173	0x3bf4d128	0.0074712224
174	0x3d54f7e8	0.051994234
175	0x3b4e658b	0.003149363
176	0x3b3cfde3	0.0028837852
177	0xbce32d0f	-0.027731447
178	0x3b35baf6	0.0027729846
179	0xbc1ef0bc	-0.00970095
180	0xbd143361	-0.03618181
181	0x3d4d414c	0.0501111
182	0x3c86921d	0.016427094
183	0x3b09e487	0.0021040754
184	0xbd36afc3	-0.044601213
185	0xbc90e588	-0.017687574
186	0xbd2e2913	-0.04251964
187	0xbc86dd17	-0.016462846
188	0xbcf3b7c5	-0.029750714
189	0x3c052560	0.008126587
190	0xbc5def92	-0.013545888
191	0xbd47b897	-0.048760023
192	0xbcc665a1	-0.024218382
193	0xbb672653	-0.0035270646
194	0x3ceaa479	0.02864288
195	0x3ce9c69d	0.028537089
196	0xbc904fff	-0.01761627
197	0xbd352223	-0.04422201
198	0xbcf70607	-0.030154241
199	0x3d2248c0	0.03962016
200	0x3c8b39e0	0.01699537
201	0x3c3368ac	0.010950249
202	0x3d23daaf	0.040003475
203	0xbd009ca2	-0.031399377
204	0xbcbbe8c9	-0.022938149
205	0xbd4525b3	-0.048131656
206	0x3c3693e9	0.011143663
207	0xbd46bc6b	-0.048519533
208	0x3c9b039e	0.018922623
209	0xbd2351ae	-0.039872818
210	0x3cc9ed0f	0.024649171
211	0x3cfde9dd	0.030995304
212	0x3bbe40ae	0.0058060503
213	0x3ce74fb3	0.028236246
214	0x3d685683	0.05672313
215	0x3d8c3b03	0.06847193
216	0x3c27c638	0.01024013
217	0x3bec26bc	0.007206766
218	0x3d82a7cd	0.06379662
219	0x3d1d3c42	0.038387544
220	0x3c8c516f	0.017128674
221	0x3a2219ad	0.00061836356
222	0xbb95bbf0	-0.004569523
223	0x3ce20475	0.027590016
224	0xbc8b17c5	-0.016979108
225	0x3cdf73db	0.027276924
226	0x3d04f846	0.032463335
227	0xbda4b027	-0.08041411
228	0xbdafc402	-0.085823074
229	0xbd4127a1	-0.047156934
230	0x3c470422	0.012146981
231	0xbd0052bb	-0.031328898
232	0x3d559759	0.05214629
233	0x3cd9713f	0.026543258
234	0xbcf44cd9	-0.0298218
235	0xbca2d48b	-0.019876739
236	0xbd3edda1	-0.04659808
237	0xbc984475	-0.01858733
238	0x3ce5e66d	0.028063977
239	0xbc89109c	-0.016731553
240	0xbc904c50	-0.017614514
241	0xbc344482	-0.011002662
242	0xbd15ec10	-0.03660208
243	0x3dab2fcc	0.08358726
244	0x3ce3f78e	0.027828004
245	0x3cc0df88	0.023544088
246	0xb919b970	-0.00014660298
247	0xbc745726	-0.014913356
248	0xbd131287	-0.03590634
249	0xbc81054a	-0.015749592
250	0x3d1e3e46	0.038633607
251	0xbbf4996b	-0.007464578
252	0xbd08131f	-0.03322136
253	0x3ce70b8d	0.02820375
254	0x3a48bcb3	0.0007657513
255	0xbcd70a8a	-0.026250143

conv2d_5/BiasAdd_bias_fused_bn f4 [32]
0	0xbcebfb96	-0.028806489
1	0xbdc88ea4	-0.097928315
2	0xbe09fd25	-0.13475473
3	0x3e4a22c3	0.19739823
4	0xbe69d855	-0.2283643
5	0xbe2dcaa2	-0.1697183
6	0xbd96673c	-0.07343909
7	0x3e1e8da3	0.15483718
8	0x3daed017	0.08535784
9	0xbe82c0ae	-0.25537628
10	0x3e339378	0.17536724
11	0xbe3d9ce7	-0.18516885
12	0xbdec9251	-0.11551345
13	0x3e5dcf85	0.21661194
14	0xbe00af34	-0.12566835
15	0xbe19ab02	-0.1500664
16	0xbe26ed75	-0.1630152
17	0x3e905c04	0.28195202
18	0xbe0153fb	-0.12629692
19	0xbe5eba00	-0.21750641
20	0xbbc57c20	-0.0060267597
21	0x3ea98846	0.3311178
22	0xbe933159	-0.28748587
23	0x3e832b50	0.25618982
24	0xbe462a01	-0.1935196
25	0x3dfc5486	0.12320809
26	0xbd8e4cd6	-0.06948249
27	0x3d7e0540	0.062016726
28	0xbdda249c	-0.10651514
29	0x3e0bd7fb	0.13656609
30	0x3e8f25f9	0.27958658
31	0x3e589630	0.21151042

conv2d_4/BiasAdd_weights_fused_bn f4 [32, 16, 3, 3]
0	0xbde19377	-0.11014455
1	0xbcd85f49	-0.026412623
2	0xbd72b5a0	-0.059255242
3	0xbc967438	-0.018365964
4	0x3c669202	0.014072897
5	0xbd9d8b67	-0.076926045
6	0x3c493381	0.012280346
7	0x3bfc8782	0.0077065835
8	0xbdd0773a	-0.10178991
9	0xbc80e443	-0.015733844
10	0x3d79f72b	0.061026733
11	0xbdf17eeb	-0.11791786
12	0xbd08fc7a	-0.033443905
13	0xbd0d222c	-0.034456417
14	0xbdc71efb	-0.09722706
15	0xbcea7ead	-0.028624857
16	0xbd3cd7f5	-0.04610439
17	0xbe42c1ae	-0.19019195
18	0xbd55d5cd	-0.05220585
19	0xbd9837a1	-0.07432485
20	0x3c902df1	0.017600032
21	0x3cc76890	0.024341851
22	0x3d7353b6	0.059406005
23	0x3d44d0f1	0.048050825
24	0x3ce8e8ab	0.028431257
25	0x3c8e9142	0.017403249
26	0x3d6d336c	0.057910368
27	0x3a8ef21f	0.0010905898
28	0xbdd50fd7	-0.10403412
29	0xbdb244cf	-0.087045304
30	0xbe230787	-0.1592084
31	0xbd383200	-0.04496956
32	0xbdc06110	-0.09393513
33	0x3dda976a	0.10673411
34	0xbd6eb646	-0.0582793
35	0x3dbc45d5	0.09193007
36	0xbc8ab41b	-0.016931584
37	0x3d12a1df	0.035798904
38	0xbd2823b4	-0.041049674
39	0xbdaa0ca3	-0.083031915
40	0xbdeb872d	-0.11500392
41	0x3dc5b098	0.09652823
42	0x3e04ae8a	0.12957206
43	0xbd23f2a7	-0.040026333
44	0x3d818f00	0.06326103
45	0x3d9fb82d	0.077988006
46	0x3cc46b5d	0.023976976
47	0xbd61ca3a	-0.0551245
48	0xbcd9efa0	-0.02660352
49	0x3d418d8c	0.04725413
50	0x3c83057e	0.01599383
51	0x3d61fefd	0.055174816
52	0xbd1e7675	-0.03868719
53	0x3d3d50e5	0.046219725
54	0x3c0d7615	0.00863411
55	0xbd955784	-0.07292083
56	0xbc1a9345	-0.009434526
57	0x3cfa55cc	0.03055849
58	0x3dbfa6ef	0.09358012
59	0x3d4c61b2	0.049897857
60	0x3d3ebc65	0.046566386
61	0x3c28cdeb	0.010303001
62	0xbdc31e17	-0.095272236
63	0x3dde777d	0.10862634
64	0x3d4fe4a5	0.05075516
65	0xbdd85387	-0.105628066
66	0xbd951435	-0.07279245
67	0xbe1405f0	-0.1445539
68	0x3d155382	0.036456592
69	0x3d3e7d3d	0.046506155
70	0x3c46a381	0.012123943
71	0x3dd39d3e	0.10332726
72	0xbd707c2d	-0.058712173
73	0xbe17e533	-0.14833526
74	0x3d545b79	0.051845048
75	0xbddcacd3	-0.10775151
76	0xbd4ab5d5	-0.049489815
77	0x3ca567a1	0.020191016
78	0x3c1e899b	0.009676362
79	0xbcf9ea5a	-0.030507255
80	0x3dd9dab9	0.10637421
81	0xbd1ff903	-0.039055835
82	0xbd0a9d69	-0.033841524
83	0xbdcb5e1d	-0.0993006
84	0x3da34408	0.0797196
85	0x3d19d1df	0.037553664
86	0x3da56c5f	0.08077311
87	0x3c0c6c4c	0.008570742
88	0x3c965cf5	0.018354872
89	0x3db0c5de	0.0863149
90	0xbd9feaab	-0.07808431
91	0x3d2fe397	0.042941656
92	0xbd16e6e0	-0.036841273
93	0xbd382af0	-0.044962823
94	0x3db2a4c2	0.08722831
95	0xbd750598	-0.059819788
96	0x3d07e5e8	0.03317824
97	0x3d70b7bf	0.058768984
98	0xbda5f3c7	-0.081031375
99	0xbd9d9bf9	-0.07695765
100	0xbd31ee95	-0.04344042
101	0xbe1994ab	-0.14998119
102	0x3d450fcb	0.048110764
103	0x3a13af8f	0.0005633765
104	0xbd95e3f7	-0.073188715
105	0x3c77ffdc	0.015136685
106	0x3c95d9f1	0.0182924
107	0x3d806695	0.06269566
108	0xbd070b8d	-0.03297
109	0x3c97c600	0.018527031
110	0xbbfd3b67	-0.0077280286
111	0x3c6d21f2	0.014473425
112	0x3ca01a84	0.019543894
113	0xbde9e6fe	-0.114210114
114	0x3de45a4b	0.111500345
115	0x3d03811c	0.03210555
116	0x3d976b4a	0.07393511
117	0x3dd976a6	0.106183335
118	0xbb74201a	-0.003725058
119	0xbdda2ba1	-0.10652853
120	0xbd57c016	-0.05267342
121	0xbd4b5b94	-0.049647883
122	0xbd7faa5c	-0.062418327
123	0x3d50e6cc	0.051001355
124	0x3cd81a12	0.026379619
125	0x3e1f4f4b	0.15557592
126	0x3d90d89a	0.070725635
127	0x3dd4a641	0.10383273
128	0x3ca3e9fe	0.020009037
129	0xbdab165b	-0.08353873
130	0xbd9d723a	-0.076878026
131	0x3dafe6b2	0.085889235
132	0xbc3482ce	-0.011017514
133	0xbdaeb665	-0.08530883
134	0xbe0cab48	-0.13737214
135	0xbd168585	-0.036748428
136	0xbd44cccc	-0.048046872
137	0x3e2670ae	0.16253921
138	0xbc73c6a2	-0.014878901
139	0xbe0b23bc	-0.1358785
140	0x3bb7fc81	0.0056148176
141	0xbd250a30	-0.04029292
142	0xbd3bd7e2	-0.04586018
143	0xbd37e52e	-0.044896297
144	0xbe2762bd	-0.1634626
145	0x3dcc8167	0.09985619
146	0xbcd1202a	-0.025528032
147	0x3d8eaddd	0.069667555
148	0x3d95e761	0.07319523
149	0xbe0bd285	-0.13654526
150	0xbd456e33	-0.048200797
151	0xbd3037bd	-0.043021906
152	0xbdb1085a	-0.08644171
153	0xbdf0cf88	-0.117583334
154	0xbd85d159	-0.065340705
155	0x3db661ec	0.08905396
156	0xbe13a0f4	-0.14416867
157	0xbe2bbd18	-0.16771352
158	0xbe12f39e	-0.14350745
159	0xbd0cd12f	-0.03437918
160	0x3d29a1c0	0.041414022
161	0x3e4eb3f1	0.2018583
162	0xbde70d41	-0.11281825
163	0xbd633180	-0.05546713
164	0x3ddd2d6e	0.10799681
165	0xbd712500	-0.058873177
166	0x3e1983f1	0.14991738
167	0xbdd41574	-0.10355654
168	0xbca56314	-0.020188846
169	0xbb456233	-0.0030118346
170	0xbdc261d0	-0.094913125
171	0x3da0e405	0.07855991
172	0xbb34c5d7	-0.0027583742
173	0xbd459a54	-0.048242882
174	0x3be470f1	0.0069714715
175	0xbdd9e025	-0.10638455
176	0x3d8a2633	0.06745567
177	0x3d84b44a	0.064797
178	0xbe6644bd	-0.22487159
179	0x3c0028c0	0.007822216
180	0xbdb7de1c	-0.08977911
181	0x3d374dab	0.044751804
182	0xbd670cbf	-0.05640864
183	0xbde799f1	-0.11308659
184	0x3e139e2f	0.14415811
185	0xbd25afd7	-0.040450897
186	0x3e136fc0	0.14398098
187	0xbd41427c	-0.047182545
188	0xbd59b41c	-0.05315028
189	0xbd0b8c3c	-0.034069285
190	0xbd052fd6	-0.032516323
191	0xbe09e29d	-0.13465352
192	0x3c8a2dfb	0.016867628
193	0x3d972609	0.073803015
194	0x3d94d6f9	0.07267565
195	0x3e02b50d	0.12764378
196	0x3e4bfbea	0.19920316
197	0xbd0e0040	-0.034668207
198	0xbc608634	-0.0137038715
199	0x3e2afc5e	0.16697833
200	0xbcc57e78	-0.024108157
201	0xbd97c5aa	-0.07410748
202	0xbd467b23	-0.048457276
203	0x3df460a9	0.11932499
204	0x3b9175fa	0.0044391127
205	0x3d59d045	0.053177137
206	0xbc0cd664	-0.008596037
207	0x3dc77fba	0.09741159
208	0x3d2905ae	0.041265182
209	0xbbc869e2	-0.006116138
210	0xbcca126e	-0.024666991
211	0x3d5c3e09	0.0537701
212	0xbbcbbddd	-0.006217702
213	0x3dbcd433	0.09220161
214	0x3d0ab7c7	0.03386667
215	0xbd620ab2	-0.05518598
216	0xbe21ed42	-0.15813163
217	0x3d1abd87	0.037778404
218	0xbd5ae5c2	-0.05344177
219	0x3c26528c	0.010151517
220	0xbdc321ed	-0.09527955
221	0xbd89f394	-0.06735912
222	0x3c0be12b	0.008537571
223	0x3dee41dc	0.116336554
224	0xbd7a1511	-0.061055247
225	0xbda2a7f2	-0.07942189
226	0x3cf07b3c	0.029355638
227	0x3d344a67	0.044016268
228	0x3d0df5ef	0.03465837
229	0x3e29de0a	0.16588607
230	0xbd435170	-0.047685087
231	0xbcc9a63d	-0.024615401
232	0x3d11a0c2	0.0355537
233	0xbcacf842	-0.021114472
234	0xbe41e260	-0.18934011
235	0xbe15a3da	-0.14613286
236	0xbd002feb	-0.031295698
237	0x3d23984b	0.03994016
238	0xbe1c7bec	-0.15281647
239	0xbe372e8b	-0.17888848
240	0xbe1a06aa	-0.15041605
241	0xbd023f0c	-0.031798407
242	0xbe06d412	-0.13166836
243	0x3e2bcc2d	0.16777106
244	0xbd45c5bb	-0.048284274
245	0xbc2a3073	-0.010387528
246	0x3c98e003	0.018661505
247	0x3a7f5019	0.00097394135
248	0x3c150c61	0.00909719
249	0xbdc81c7a	-0.097710565
250	0xbd461cbd	-0.04836725
251	0xbde2e387	-0.11078554
252	0x3d9d14bd	0.07669971
253	0x3d0fd83c	0.035118327
254	0x3dee9ce6	0.1165102
255	0x3de033d2	0.10947384

conv2d_4/BiasAdd_bias_fused_bn f4 [32]
0	0x3eeaaba4	0.45834076
1	0x3ee466be	0.44609636
2	0x3ed4c94a	0.4155982
3	0x3e803044	0.25036824
4	0x3e8ee8da	0.27912027
5	0x3e9bcc80	0.3042946
6	0xbd6fc4cd	-0.058537293
7	0x3e2f6b22	0.17130712
8	0x3dc47ebe	0.09594487
9	0x3de0ac9c	0.109704226
10	0x3f053f45	0.52049667
11	0x3effd551	0.49967435
12	0xbb4b62e0	-0.0031034276
13	0xbf4db45a	-0.8035332
14	0x3e38595f	0.18002842
15	0xbf6d6f9f	-0.92748445
16	0x3f26a32c	0.6509273
17	0xbf147f7a	-0.58007014
18	0x3ec9c64e	0.39409107
19	0xbf1cb9fd	-0.61221296
20	0x3ee1dbe0	0.44113064
21	0xbf6a5def	-0.9154958
22	0x3f245787	0.64196056
23	0xbcaf5744	-0.021403916
24	0x3e8c5e17	0.27415535
25	0xbf567461	-0.8377133
26	0x3f24c7b2	0.6436721
27	0x3e69f6aa	0.22848001
28	0x3eb3f44a	0.35147315
29	0x3f019bad	0.5062817
30	0xbdf00614	-0.11719909
31	0xbef550b6	-0.4791314
